{"backend": "tensorflow", "keras_version": "2.1.3", "config": {"name": "crowdnet", "output_layers": [["conv7_2", 0, 0]], "layers": [{"name": "input_1", "inbound_nodes": [], "config": {"name": "input_1", "batch_input_shape": [null, 128, 128, 1], "sparse": false, "dtype": "float32"}, "class_name": "InputLayer"}, {"name": "zero_padding2d_1", "inbound_nodes": [[["input_1", 0, 0, {}]]], "config": {"name": "zero_padding2d_1", "padding": [[1, 1], [1, 1]], "trainable": true, "data_format": "channels_last"}, "class_name": "ZeroPadding2D"}, {"name": "conv1_1", "inbound_nodes": [[["zero_padding2d_1", 0, 0, {}]]], "config": {"bias_initializer": {"config": {}, "class_name": "Zeros"}, "kernel_regularizer": null, "kernel_size": [3, 3], "name": "conv1_1", "padding": "valid", "bias_regularizer": null, "trainable": true, "use_bias": true, "kernel_constraint": null, "activation": "linear", "activity_regularizer": null, "strides": [1, 1], "data_format": "channels_last", "dilation_rate": [1, 1], "bias_constraint": null, "kernel_initializer": {"config": {"distribution": "uniform", "seed": 0, "mode": "fan_avg", "scale": 1.0}, "class_name": "VarianceScaling"}, "filters": 64}, "class_name": "Conv2D"}, {"name": "bn_conv1_1", "inbound_nodes": [[["conv1_1", 0, 0, {}]]], "config": {"gamma_initializer": {"config": {}, "class_name": "Ones"}, "center": true, "beta_constraint": null, "epsilon": 0.001, "momentum": 0.99, "name": "bn_conv1_1", "trainable": true, "scale": true, "beta_initializer": {"config": {}, "class_name": "Zeros"}, "moving_variance_initializer": {"config": {}, "class_name": "Ones"}, "moving_mean_initializer": {"config": {}, "class_name": "Zeros"}, "gamma_constraint": null, "axis": 3, "beta_regularizer": null, "gamma_regularizer": null}, "class_name": "BatchNormalization"}, {"name": "relu1_1", "inbound_nodes": [[["bn_conv1_1", 0, 0, {}]]], "config": {"name": "relu1_1", "trainable": true, "activation": "relu"}, "class_name": "Activation"}, {"name": "zero_padding2d_2", "inbound_nodes": [[["relu1_1", 0, 0, {}]]], "config": {"name": "zero_padding2d_2", "padding": [[1, 1], [1, 1]], "trainable": true, "data_format": "channels_last"}, "class_name": "ZeroPadding2D"}, {"name": "conv1_2", "inbound_nodes": [[["zero_padding2d_2", 0, 0, {}]]], "config": {"bias_initializer": {"config": {}, "class_name": "Zeros"}, "kernel_regularizer": null, "kernel_size": [3, 3], "name": "conv1_2", "padding": "valid", "bias_regularizer": null, "trainable": true, "use_bias": true, "kernel_constraint": null, "activation": "linear", "activity_regularizer": null, "strides": [1, 1], "data_format": "channels_last", "dilation_rate": [1, 1], "bias_constraint": null, "kernel_initializer": {"config": {"distribution": "uniform", "seed": 0, "mode": "fan_avg", "scale": 1.0}, "class_name": "VarianceScaling"}, "filters": 64}, "class_name": "Conv2D"}, {"name": "bn_conv1_2", "inbound_nodes": [[["conv1_2", 0, 0, {}]]], "config": {"gamma_initializer": {"config": {}, "class_name": "Ones"}, "center": true, "beta_constraint": null, "epsilon": 0.001, "momentum": 0.99, "name": "bn_conv1_2", "trainable": true, "scale": true, "beta_initializer": {"config": {}, "class_name": "Zeros"}, "moving_variance_initializer": {"config": {}, "class_name": "Ones"}, "moving_mean_initializer": {"config": {}, "class_name": "Zeros"}, "gamma_constraint": null, "axis": 3, "beta_regularizer": null, "gamma_regularizer": null}, "class_name": "BatchNormalization"}, {"name": "relu1_2", "inbound_nodes": [[["bn_conv1_2", 0, 0, {}]]], "config": {"name": "relu1_2", "trainable": true, "activation": "relu"}, "class_name": "Activation"}, {"name": "zero_padding2d_3", "inbound_nodes": [[["relu1_2", 0, 0, {}]]], "config": {"name": "zero_padding2d_3", "padding": [[1, 1], [1, 1]], "trainable": true, "data_format": "channels_last"}, "class_name": "ZeroPadding2D"}, {"name": "conv1_3", "inbound_nodes": [[["zero_padding2d_3", 0, 0, {}]]], "config": {"bias_initializer": {"config": {}, "class_name": "Zeros"}, "kernel_regularizer": null, "kernel_size": [3, 3], "name": "conv1_3", "padding": "valid", "bias_regularizer": null, "trainable": true, "use_bias": true, "kernel_constraint": null, "activation": "linear", "activity_regularizer": null, "strides": [1, 1], "data_format": "channels_last", "dilation_rate": [1, 1], "bias_constraint": null, "kernel_initializer": {"config": {"distribution": "uniform", "seed": 0, "mode": "fan_avg", "scale": 1.0}, "class_name": "VarianceScaling"}, "filters": 64}, "class_name": "Conv2D"}, {"name": "bn_conv1_3", "inbound_nodes": [[["conv1_3", 0, 0, {}]]], "config": {"gamma_initializer": {"config": {}, "class_name": "Ones"}, "center": true, "beta_constraint": null, "epsilon": 0.001, "momentum": 0.99, "name": "bn_conv1_3", "trainable": true, "scale": true, "beta_initializer": {"config": {}, "class_name": "Zeros"}, "moving_variance_initializer": {"config": {}, "class_name": "Ones"}, "moving_mean_initializer": {"config": {}, "class_name": "Zeros"}, "gamma_constraint": null, "axis": 3, "beta_regularizer": null, "gamma_regularizer": null}, "class_name": "BatchNormalization"}, {"name": "relu1_3", "inbound_nodes": [[["bn_conv1_3", 0, 0, {}]]], "config": {"name": "relu1_3", "trainable": true, "activation": "relu"}, "class_name": "Activation"}, {"name": "pool1", "inbound_nodes": [[["relu1_3", 0, 0, {}]]], "config": {"strides": [2, 2], "data_format": "channels_last", "name": "pool1", "padding": "valid", "trainable": true, "pool_size": [2, 2]}, "class_name": "MaxPooling2D"}, {"name": "zero_padding2d_4", "inbound_nodes": [[["pool1", 0, 0, {}]]], "config": {"name": "zero_padding2d_4", "padding": [[1, 1], [1, 1]], "trainable": true, "data_format": "channels_last"}, "class_name": "ZeroPadding2D"}, {"name": "conv2_1", "inbound_nodes": [[["zero_padding2d_4", 0, 0, {}]]], "config": {"bias_initializer": {"config": {}, "class_name": "Zeros"}, "kernel_regularizer": null, "kernel_size": [3, 3], "name": "conv2_1", "padding": "valid", "bias_regularizer": null, "trainable": true, "use_bias": true, "kernel_constraint": null, "activation": "linear", "activity_regularizer": null, "strides": [1, 1], "data_format": "channels_last", "dilation_rate": [1, 1], "bias_constraint": null, "kernel_initializer": {"config": {"distribution": "uniform", "seed": 0, "mode": "fan_avg", "scale": 1.0}, "class_name": "VarianceScaling"}, "filters": 64}, "class_name": "Conv2D"}, {"name": "bn_conv2_1", "inbound_nodes": [[["conv2_1", 0, 0, {}]]], "config": {"gamma_initializer": {"config": {}, "class_name": "Ones"}, "center": true, "beta_constraint": null, "epsilon": 0.001, "momentum": 0.99, "name": "bn_conv2_1", "trainable": true, "scale": true, "beta_initializer": {"config": {}, "class_name": "Zeros"}, "moving_variance_initializer": {"config": {}, "class_name": "Ones"}, "moving_mean_initializer": {"config": {}, "class_name": "Zeros"}, "gamma_constraint": null, "axis": 3, "beta_regularizer": null, "gamma_regularizer": null}, "class_name": "BatchNormalization"}, {"name": "relu2_1", "inbound_nodes": [[["bn_conv2_1", 0, 0, {}]]], "config": {"name": "relu2_1", "trainable": true, "activation": "relu"}, "class_name": "Activation"}, {"name": "zero_padding2d_5", "inbound_nodes": [[["relu2_1", 0, 0, {}]]], "config": {"name": "zero_padding2d_5", "padding": [[1, 1], [1, 1]], "trainable": true, "data_format": "channels_last"}, "class_name": "ZeroPadding2D"}, {"name": "conv2_2", "inbound_nodes": [[["zero_padding2d_5", 0, 0, {}]]], "config": {"bias_initializer": {"config": {}, "class_name": "Zeros"}, "kernel_regularizer": null, "kernel_size": [3, 3], "name": "conv2_2", "padding": "valid", "bias_regularizer": null, "trainable": true, "use_bias": true, "kernel_constraint": null, "activation": "linear", "activity_regularizer": null, "strides": [1, 1], "data_format": "channels_last", "dilation_rate": [1, 1], "bias_constraint": null, "kernel_initializer": {"config": {"distribution": "uniform", "seed": 0, "mode": "fan_avg", "scale": 1.0}, "class_name": "VarianceScaling"}, "filters": 64}, "class_name": "Conv2D"}, {"name": "bn_conv2_2", "inbound_nodes": [[["conv2_2", 0, 0, {}]]], "config": {"gamma_initializer": {"config": {}, "class_name": "Ones"}, "center": true, "beta_constraint": null, "epsilon": 0.001, "momentum": 0.99, "name": "bn_conv2_2", "trainable": true, "scale": true, "beta_initializer": {"config": {}, "class_name": "Zeros"}, "moving_variance_initializer": {"config": {}, "class_name": "Ones"}, "moving_mean_initializer": {"config": {}, "class_name": "Zeros"}, "gamma_constraint": null, "axis": 3, "beta_regularizer": null, "gamma_regularizer": null}, "class_name": "BatchNormalization"}, {"name": "relu2_2", "inbound_nodes": [[["bn_conv2_2", 0, 0, {}]]], "config": {"name": "relu2_2", "trainable": true, "activation": "relu"}, "class_name": "Activation"}, {"name": "zero_padding2d_6", "inbound_nodes": [[["relu2_2", 0, 0, {}]]], "config": {"name": "zero_padding2d_6", "padding": [[1, 1], [1, 1]], "trainable": true, "data_format": "channels_last"}, "class_name": "ZeroPadding2D"}, {"name": "conv2_3", "inbound_nodes": [[["zero_padding2d_6", 0, 0, {}]]], "config": {"bias_initializer": {"config": {}, "class_name": "Zeros"}, "kernel_regularizer": null, "kernel_size": [3, 3], "name": "conv2_3", "padding": "valid", "bias_regularizer": null, "trainable": true, "use_bias": true, "kernel_constraint": null, "activation": "linear", "activity_regularizer": null, "strides": [1, 1], "data_format": "channels_last", "dilation_rate": [1, 1], "bias_constraint": null, "kernel_initializer": {"config": {"distribution": "uniform", "seed": 0, "mode": "fan_avg", "scale": 1.0}, "class_name": "VarianceScaling"}, "filters": 64}, "class_name": "Conv2D"}, {"name": "bn_conv2_3", "inbound_nodes": [[["conv2_3", 0, 0, {}]]], "config": {"gamma_initializer": {"config": {}, "class_name": "Ones"}, "center": true, "beta_constraint": null, "epsilon": 0.001, "momentum": 0.99, "name": "bn_conv2_3", "trainable": true, "scale": true, "beta_initializer": {"config": {}, "class_name": "Zeros"}, "moving_variance_initializer": {"config": {}, "class_name": "Ones"}, "moving_mean_initializer": {"config": {}, "class_name": "Zeros"}, "gamma_constraint": null, "axis": 3, "beta_regularizer": null, "gamma_regularizer": null}, "class_name": "BatchNormalization"}, {"name": "relu2_3", "inbound_nodes": [[["bn_conv2_3", 0, 0, {}]]], "config": {"name": "relu2_3", "trainable": true, "activation": "relu"}, "class_name": "Activation"}, {"name": "pool2", "inbound_nodes": [[["relu2_3", 0, 0, {}]]], "config": {"strides": [2, 2], "data_format": "channels_last", "name": "pool2", "padding": "valid", "trainable": true, "pool_size": [2, 2]}, "class_name": "MaxPooling2D"}, {"name": "zero_padding2d_7", "inbound_nodes": [[["pool2", 0, 0, {}]]], "config": {"name": "zero_padding2d_7", "padding": [[1, 1], [1, 1]], "trainable": true, "data_format": "channels_last"}, "class_name": "ZeroPadding2D"}, {"name": "conv3_1", "inbound_nodes": [[["zero_padding2d_7", 0, 0, {}]]], "config": {"bias_initializer": {"config": {}, "class_name": "Zeros"}, "kernel_regularizer": null, "kernel_size": [3, 3], "name": "conv3_1", "padding": "valid", "bias_regularizer": null, "trainable": true, "use_bias": true, "kernel_constraint": null, "activation": "linear", "activity_regularizer": null, "strides": [1, 1], "data_format": "channels_last", "dilation_rate": [1, 1], "bias_constraint": null, "kernel_initializer": {"config": {"distribution": "uniform", "seed": 0, "mode": "fan_avg", "scale": 1.0}, "class_name": "VarianceScaling"}, "filters": 512}, "class_name": "Conv2D"}, {"name": "bn_conv3_1", "inbound_nodes": [[["conv3_1", 0, 0, {}]]], "config": {"gamma_initializer": {"config": {}, "class_name": "Ones"}, "center": true, "beta_constraint": null, "epsilon": 0.001, "momentum": 0.99, "name": "bn_conv3_1", "trainable": true, "scale": true, "beta_initializer": {"config": {}, "class_name": "Zeros"}, "moving_variance_initializer": {"config": {}, "class_name": "Ones"}, "moving_mean_initializer": {"config": {}, "class_name": "Zeros"}, "gamma_constraint": null, "axis": 3, "beta_regularizer": null, "gamma_regularizer": null}, "class_name": "BatchNormalization"}, {"name": "relu3_1", "inbound_nodes": [[["bn_conv3_1", 0, 0, {}]]], "config": {"name": "relu3_1", "trainable": true, "activation": "relu"}, "class_name": "Activation"}, {"name": "zero_padding2d_8", "inbound_nodes": [[["relu3_1", 0, 0, {}]]], "config": {"name": "zero_padding2d_8", "padding": [[1, 1], [1, 1]], "trainable": true, "data_format": "channels_last"}, "class_name": "ZeroPadding2D"}, {"name": "conv3_2", "inbound_nodes": [[["zero_padding2d_8", 0, 0, {}]]], "config": {"bias_initializer": {"config": {}, "class_name": "Zeros"}, "kernel_regularizer": null, "kernel_size": [3, 3], "name": "conv3_2", "padding": "valid", "bias_regularizer": null, "trainable": true, "use_bias": true, "kernel_constraint": null, "activation": "linear", "activity_regularizer": null, "strides": [1, 1], "data_format": "channels_last", "dilation_rate": [1, 1], "bias_constraint": null, "kernel_initializer": {"config": {"distribution": "uniform", "seed": 0, "mode": "fan_avg", "scale": 1.0}, "class_name": "VarianceScaling"}, "filters": 512}, "class_name": "Conv2D"}, {"name": "bn_conv3_2", "inbound_nodes": [[["conv3_2", 0, 0, {}]]], "config": {"gamma_initializer": {"config": {}, "class_name": "Ones"}, "center": true, "beta_constraint": null, "epsilon": 0.001, "momentum": 0.99, "name": "bn_conv3_2", "trainable": true, "scale": true, "beta_initializer": {"config": {}, "class_name": "Zeros"}, "moving_variance_initializer": {"config": {}, "class_name": "Ones"}, "moving_mean_initializer": {"config": {}, "class_name": "Zeros"}, "gamma_constraint": null, "axis": 3, "beta_regularizer": null, "gamma_regularizer": null}, "class_name": "BatchNormalization"}, {"name": "relu3_2", "inbound_nodes": [[["bn_conv3_2", 0, 0, {}]]], "config": {"name": "relu3_2", "trainable": true, "activation": "relu"}, "class_name": "Activation"}, {"name": "zero_padding2d_9", "inbound_nodes": [[["relu3_2", 0, 0, {}]]], "config": {"name": "zero_padding2d_9", "padding": [[1, 1], [1, 1]], "trainable": true, "data_format": "channels_last"}, "class_name": "ZeroPadding2D"}, {"name": "conv3_3", "inbound_nodes": [[["zero_padding2d_9", 0, 0, {}]]], "config": {"bias_initializer": {"config": {}, "class_name": "Zeros"}, "kernel_regularizer": null, "kernel_size": [3, 3], "name": "conv3_3", "padding": "valid", "bias_regularizer": null, "trainable": true, "use_bias": true, "kernel_constraint": null, "activation": "linear", "activity_regularizer": null, "strides": [1, 1], "data_format": "channels_last", "dilation_rate": [1, 1], "bias_constraint": null, "kernel_initializer": {"config": {"distribution": "uniform", "seed": 0, "mode": "fan_avg", "scale": 1.0}, "class_name": "VarianceScaling"}, "filters": 512}, "class_name": "Conv2D"}, {"name": "bn_conv3_3", "inbound_nodes": [[["conv3_3", 0, 0, {}]]], "config": {"gamma_initializer": {"config": {}, "class_name": "Ones"}, "center": true, "beta_constraint": null, "epsilon": 0.001, "momentum": 0.99, "name": "bn_conv3_3", "trainable": true, "scale": true, "beta_initializer": {"config": {}, "class_name": "Zeros"}, "moving_variance_initializer": {"config": {}, "class_name": "Ones"}, "moving_mean_initializer": {"config": {}, "class_name": "Zeros"}, "gamma_constraint": null, "axis": 3, "beta_regularizer": null, "gamma_regularizer": null}, "class_name": "BatchNormalization"}, {"name": "relu3_3", "inbound_nodes": [[["bn_conv3_3", 0, 0, {}]]], "config": {"name": "relu3_3", "trainable": true, "activation": "relu"}, "class_name": "Activation"}, {"name": "zero_padding2d_10", "inbound_nodes": [[["relu3_3", 0, 0, {}]]], "config": {"name": "zero_padding2d_10", "padding": [[1, 1], [1, 1]], "trainable": true, "data_format": "channels_last"}, "class_name": "ZeroPadding2D"}, {"name": "conv3_4", "inbound_nodes": [[["zero_padding2d_10", 0, 0, {}]]], "config": {"bias_initializer": {"config": {}, "class_name": "Zeros"}, "kernel_regularizer": null, "kernel_size": [3, 3], "name": "conv3_4", "padding": "valid", "bias_regularizer": null, "trainable": true, "use_bias": true, "kernel_constraint": null, "activation": "linear", "activity_regularizer": null, "strides": [1, 1], "data_format": "channels_last", "dilation_rate": [1, 1], "bias_constraint": null, "kernel_initializer": {"config": {"distribution": "uniform", "seed": 0, "mode": "fan_avg", "scale": 1.0}, "class_name": "VarianceScaling"}, "filters": 512}, "class_name": "Conv2D"}, {"name": "bn_conv3_4", "inbound_nodes": [[["conv3_4", 0, 0, {}]]], "config": {"gamma_initializer": {"config": {}, "class_name": "Ones"}, "center": true, "beta_constraint": null, "epsilon": 0.001, "momentum": 0.99, "name": "bn_conv3_4", "trainable": true, "scale": true, "beta_initializer": {"config": {}, "class_name": "Zeros"}, "moving_variance_initializer": {"config": {}, "class_name": "Ones"}, "moving_mean_initializer": {"config": {}, "class_name": "Zeros"}, "gamma_constraint": null, "axis": 3, "beta_regularizer": null, "gamma_regularizer": null}, "class_name": "BatchNormalization"}, {"name": "relu3_4", "inbound_nodes": [[["bn_conv3_4", 0, 0, {}]]], "config": {"name": "relu3_4", "trainable": true, "activation": "relu"}, "class_name": "Activation"}, {"name": "zero_padding2d_11", "inbound_nodes": [[["relu3_4", 0, 0, {}]]], "config": {"name": "zero_padding2d_11", "padding": [[1, 1], [1, 1]], "trainable": true, "data_format": "channels_last"}, "class_name": "ZeroPadding2D"}, {"name": "conv4_1", "inbound_nodes": [[["zero_padding2d_11", 0, 0, {}]]], "config": {"bias_initializer": {"config": {}, "class_name": "Zeros"}, "kernel_regularizer": null, "kernel_size": [3, 3], "name": "conv4_1", "padding": "valid", "bias_regularizer": null, "trainable": true, "use_bias": true, "kernel_constraint": null, "activation": "linear", "activity_regularizer": null, "strides": [1, 1], "data_format": "channels_last", "dilation_rate": [1, 1], "bias_constraint": null, "kernel_initializer": {"config": {"distribution": "uniform", "seed": 0, "mode": "fan_avg", "scale": 1.0}, "class_name": "VarianceScaling"}, "filters": 81}, "class_name": "Conv2D"}, {"name": "bn_conv4_1", "inbound_nodes": [[["conv4_1", 0, 0, {}]]], "config": {"gamma_initializer": {"config": {}, "class_name": "Ones"}, "center": true, "beta_constraint": null, "epsilon": 0.001, "momentum": 0.99, "name": "bn_conv4_1", "trainable": true, "scale": true, "beta_initializer": {"config": {}, "class_name": "Zeros"}, "moving_variance_initializer": {"config": {}, "class_name": "Ones"}, "moving_mean_initializer": {"config": {}, "class_name": "Zeros"}, "gamma_constraint": null, "axis": 3, "beta_regularizer": null, "gamma_regularizer": null}, "class_name": "BatchNormalization"}, {"name": "relu4_1", "inbound_nodes": [[["bn_conv4_1", 0, 0, {}]]], "config": {"name": "relu4_1", "trainable": true, "activation": "relu"}, "class_name": "Activation"}, {"name": "zero_padding2d_12", "inbound_nodes": [[["relu4_1", 0, 0, {}]]], "config": {"name": "zero_padding2d_12", "padding": [[1, 1], [1, 1]], "trainable": true, "data_format": "channels_last"}, "class_name": "ZeroPadding2D"}, {"name": "conv4_2", "inbound_nodes": [[["zero_padding2d_12", 0, 0, {}]]], "config": {"bias_initializer": {"config": {}, "class_name": "Zeros"}, "kernel_regularizer": null, "kernel_size": [3, 3], "name": "conv4_2", "padding": "valid", "bias_regularizer": null, "trainable": true, "use_bias": true, "kernel_constraint": null, "activation": "linear", "activity_regularizer": null, "strides": [1, 1], "data_format": "channels_last", "dilation_rate": [1, 1], "bias_constraint": null, "kernel_initializer": {"config": {"distribution": "uniform", "seed": 0, "mode": "fan_avg", "scale": 1.0}, "class_name": "VarianceScaling"}, "filters": 81}, "class_name": "Conv2D"}, {"name": "bn_conv4_2", "inbound_nodes": [[["conv4_2", 0, 0, {}]]], "config": {"gamma_initializer": {"config": {}, "class_name": "Ones"}, "center": true, "beta_constraint": null, "epsilon": 0.001, "momentum": 0.99, "name": "bn_conv4_2", "trainable": true, "scale": true, "beta_initializer": {"config": {}, "class_name": "Zeros"}, "moving_variance_initializer": {"config": {}, "class_name": "Ones"}, "moving_mean_initializer": {"config": {}, "class_name": "Zeros"}, "gamma_constraint": null, "axis": 3, "beta_regularizer": null, "gamma_regularizer": null}, "class_name": "BatchNormalization"}, {"name": "relu4_2", "inbound_nodes": [[["bn_conv4_2", 0, 0, {}]]], "config": {"name": "relu4_2", "trainable": true, "activation": "relu"}, "class_name": "Activation"}, {"name": "zero_padding2d_13", "inbound_nodes": [[["relu4_2", 0, 0, {}]]], "config": {"name": "zero_padding2d_13", "padding": [[1, 1], [1, 1]], "trainable": true, "data_format": "channels_last"}, "class_name": "ZeroPadding2D"}, {"name": "conv4_3", "inbound_nodes": [[["zero_padding2d_13", 0, 0, {}]]], "config": {"bias_initializer": {"config": {}, "class_name": "Zeros"}, "kernel_regularizer": null, "kernel_size": [3, 3], "name": "conv4_3", "padding": "valid", "bias_regularizer": null, "trainable": true, "use_bias": true, "kernel_constraint": null, "activation": "linear", "activity_regularizer": null, "strides": [1, 1], "data_format": "channels_last", "dilation_rate": [1, 1], "bias_constraint": null, "kernel_initializer": {"config": {"distribution": "uniform", "seed": 0, "mode": "fan_avg", "scale": 1.0}, "class_name": "VarianceScaling"}, "filters": 81}, "class_name": "Conv2D"}, {"name": "bn_conv4_3", "inbound_nodes": [[["conv4_3", 0, 0, {}]]], "config": {"gamma_initializer": {"config": {}, "class_name": "Ones"}, "center": true, "beta_constraint": null, "epsilon": 0.001, "momentum": 0.99, "name": "bn_conv4_3", "trainable": true, "scale": true, "beta_initializer": {"config": {}, "class_name": "Zeros"}, "moving_variance_initializer": {"config": {}, "class_name": "Ones"}, "moving_mean_initializer": {"config": {}, "class_name": "Zeros"}, "gamma_constraint": null, "axis": 3, "beta_regularizer": null, "gamma_regularizer": null}, "class_name": "BatchNormalization"}, {"name": "relu4_3", "inbound_nodes": [[["bn_conv4_3", 0, 0, {}]]], "config": {"name": "relu4_3", "trainable": true, "activation": "relu"}, "class_name": "Activation"}, {"name": "zero_padding2d_14", "inbound_nodes": [[["relu4_3", 0, 0, {}]]], "config": {"name": "zero_padding2d_14", "padding": [[1, 1], [1, 1]], "trainable": true, "data_format": "channels_last"}, "class_name": "ZeroPadding2D"}, {"name": "conv4_4", "inbound_nodes": [[["zero_padding2d_14", 0, 0, {}]]], "config": {"bias_initializer": {"config": {}, "class_name": "Zeros"}, "kernel_regularizer": null, "kernel_size": [3, 3], "name": "conv4_4", "padding": "valid", "bias_regularizer": null, "trainable": true, "use_bias": true, "kernel_constraint": null, "activation": "linear", "activity_regularizer": null, "strides": [1, 1], "data_format": "channels_last", "dilation_rate": [1, 1], "bias_constraint": null, "kernel_initializer": {"config": {"distribution": "uniform", "seed": 0, "mode": "fan_avg", "scale": 1.0}, "class_name": "VarianceScaling"}, "filters": 81}, "class_name": "Conv2D"}, {"name": "bn_conv4_4", "inbound_nodes": [[["conv4_4", 0, 0, {}]]], "config": {"gamma_initializer": {"config": {}, "class_name": "Ones"}, "center": true, "beta_constraint": null, "epsilon": 0.001, "momentum": 0.99, "name": "bn_conv4_4", "trainable": true, "scale": true, "beta_initializer": {"config": {}, "class_name": "Zeros"}, "moving_variance_initializer": {"config": {}, "class_name": "Ones"}, "moving_mean_initializer": {"config": {}, "class_name": "Zeros"}, "gamma_constraint": null, "axis": 3, "beta_regularizer": null, "gamma_regularizer": null}, "class_name": "BatchNormalization"}, {"name": "relu4_4", "inbound_nodes": [[["bn_conv4_4", 0, 0, {}]]], "config": {"name": "relu4_4", "trainable": true, "activation": "relu"}, "class_name": "Activation"}, {"name": "zero_padding2d_15", "inbound_nodes": [[["relu4_4", 0, 0, {}]]], "config": {"name": "zero_padding2d_15", "padding": [[1, 1], [1, 1]], "trainable": true, "data_format": "channels_last"}, "class_name": "ZeroPadding2D"}, {"name": "conv5_1", "inbound_nodes": [[["zero_padding2d_15", 0, 0, {}]]], "config": {"bias_initializer": {"config": {}, "class_name": "Zeros"}, "kernel_regularizer": null, "kernel_size": [3, 3], "name": "conv5_1", "padding": "valid", "bias_regularizer": null, "trainable": true, "use_bias": true, "kernel_constraint": null, "activation": "linear", "activity_regularizer": null, "strides": [1, 1], "data_format": "channels_last", "dilation_rate": [1, 1], "bias_constraint": null, "kernel_initializer": {"config": {"distribution": "uniform", "seed": 0, "mode": "fan_avg", "scale": 1.0}, "class_name": "VarianceScaling"}, "filters": 1}, "class_name": "Conv2D"}, {"name": "bn_conv5_1", "inbound_nodes": [[["conv5_1", 0, 0, {}]]], "config": {"gamma_initializer": {"config": {}, "class_name": "Ones"}, "center": true, "beta_constraint": null, "epsilon": 0.001, "momentum": 0.99, "name": "bn_conv5_1", "trainable": true, "scale": true, "beta_initializer": {"config": {}, "class_name": "Zeros"}, "moving_variance_initializer": {"config": {}, "class_name": "Ones"}, "moving_mean_initializer": {"config": {}, "class_name": "Zeros"}, "gamma_constraint": null, "axis": 3, "beta_regularizer": null, "gamma_regularizer": null}, "class_name": "BatchNormalization"}, {"name": "relu5_1", "inbound_nodes": [[["bn_conv5_1", 0, 0, {}]]], "config": {"name": "relu5_1", "trainable": true, "activation": "relu"}, "class_name": "Activation"}, {"name": "zero_padding2d_16", "inbound_nodes": [[["relu5_1", 0, 0, {}]]], "config": {"name": "zero_padding2d_16", "padding": [[1, 1], [1, 1]], "trainable": true, "data_format": "channels_last"}, "class_name": "ZeroPadding2D"}, {"name": "conv5_2", "inbound_nodes": [[["zero_padding2d_16", 0, 0, {}]]], "config": {"bias_initializer": {"config": {}, "class_name": "Zeros"}, "kernel_regularizer": null, "kernel_size": [3, 3], "name": "conv5_2", "padding": "valid", "bias_regularizer": null, "trainable": true, "use_bias": true, "kernel_constraint": null, "activation": "linear", "activity_regularizer": null, "strides": [1, 1], "data_format": "channels_last", "dilation_rate": [1, 1], "bias_constraint": null, "kernel_initializer": {"config": {"distribution": "uniform", "seed": 0, "mode": "fan_avg", "scale": 1.0}, "class_name": "VarianceScaling"}, "filters": 1}, "class_name": "Conv2D"}, {"name": "bn_conv5_2", "inbound_nodes": [[["conv5_2", 0, 0, {}]]], "config": {"gamma_initializer": {"config": {}, "class_name": "Ones"}, "center": true, "beta_constraint": null, "epsilon": 0.001, "momentum": 0.99, "name": "bn_conv5_2", "trainable": true, "scale": true, "beta_initializer": {"config": {}, "class_name": "Zeros"}, "moving_variance_initializer": {"config": {}, "class_name": "Ones"}, "moving_mean_initializer": {"config": {}, "class_name": "Zeros"}, "gamma_constraint": null, "axis": 3, "beta_regularizer": null, "gamma_regularizer": null}, "class_name": "BatchNormalization"}, {"name": "relu5_2", "inbound_nodes": [[["bn_conv5_2", 0, 0, {}]]], "config": {"name": "relu5_2", "trainable": true, "activation": "relu"}, "class_name": "Activation"}, {"name": "up_sampling2d_1", "inbound_nodes": [[["relu5_2", 0, 0, {}]]], "config": {"name": "up_sampling2d_1", "size": [2, 2], "trainable": true, "data_format": "channels_last"}, "class_name": "UpSampling2D"}, {"name": "zero_padding2d_17", "inbound_nodes": [[["up_sampling2d_1", 0, 0, {}]]], "config": {"name": "zero_padding2d_17", "padding": [[1, 1], [1, 1]], "trainable": true, "data_format": "channels_last"}, "class_name": "ZeroPadding2D"}, {"name": "conv6_1", "inbound_nodes": [[["zero_padding2d_17", 0, 0, {}]]], "config": {"bias_initializer": {"config": {}, "class_name": "Zeros"}, "kernel_regularizer": null, "kernel_size": [3, 3], "name": "conv6_1", "padding": "valid", "bias_regularizer": null, "trainable": true, "use_bias": true, "kernel_constraint": null, "activation": "linear", "activity_regularizer": null, "strides": [1, 1], "data_format": "channels_last", "dilation_rate": [1, 1], "bias_constraint": null, "kernel_initializer": {"config": {"distribution": "uniform", "seed": 0, "mode": "fan_avg", "scale": 1.0}, "class_name": "VarianceScaling"}, "filters": 1}, "class_name": "Conv2D"}, {"name": "bn_conv6_1", "inbound_nodes": [[["conv6_1", 0, 0, {}]]], "config": {"gamma_initializer": {"config": {}, "class_name": "Ones"}, "center": true, "beta_constraint": null, "epsilon": 0.001, "momentum": 0.99, "name": "bn_conv6_1", "trainable": true, "scale": true, "beta_initializer": {"config": {}, "class_name": "Zeros"}, "moving_variance_initializer": {"config": {}, "class_name": "Ones"}, "moving_mean_initializer": {"config": {}, "class_name": "Zeros"}, "gamma_constraint": null, "axis": 3, "beta_regularizer": null, "gamma_regularizer": null}, "class_name": "BatchNormalization"}, {"name": "relu6_1", "inbound_nodes": [[["bn_conv6_1", 0, 0, {}]]], "config": {"name": "relu6_1", "trainable": true, "activation": "relu"}, "class_name": "Activation"}, {"name": "zero_padding2d_18", "inbound_nodes": [[["relu6_1", 0, 0, {}]]], "config": {"name": "zero_padding2d_18", "padding": [[1, 1], [1, 1]], "trainable": true, "data_format": "channels_last"}, "class_name": "ZeroPadding2D"}, {"name": "conv6_2", "inbound_nodes": [[["zero_padding2d_18", 0, 0, {}]]], "config": {"bias_initializer": {"config": {}, "class_name": "Zeros"}, "kernel_regularizer": null, "kernel_size": [3, 3], "name": "conv6_2", "padding": "valid", "bias_regularizer": null, "trainable": true, "use_bias": true, "kernel_constraint": null, "activation": "linear", "activity_regularizer": null, "strides": [1, 1], "data_format": "channels_last", "dilation_rate": [1, 1], "bias_constraint": null, "kernel_initializer": {"config": {"distribution": "uniform", "seed": 0, "mode": "fan_avg", "scale": 1.0}, "class_name": "VarianceScaling"}, "filters": 1}, "class_name": "Conv2D"}, {"name": "bn_conv6_2", "inbound_nodes": [[["conv6_2", 0, 0, {}]]], "config": {"gamma_initializer": {"config": {}, "class_name": "Ones"}, "center": true, "beta_constraint": null, "epsilon": 0.001, "momentum": 0.99, "name": "bn_conv6_2", "trainable": true, "scale": true, "beta_initializer": {"config": {}, "class_name": "Zeros"}, "moving_variance_initializer": {"config": {}, "class_name": "Ones"}, "moving_mean_initializer": {"config": {}, "class_name": "Zeros"}, "gamma_constraint": null, "axis": 3, "beta_regularizer": null, "gamma_regularizer": null}, "class_name": "BatchNormalization"}, {"name": "relu6_2", "inbound_nodes": [[["bn_conv6_2", 0, 0, {}]]], "config": {"name": "relu6_2", "trainable": true, "activation": "relu"}, "class_name": "Activation"}, {"name": "up_sampling2d_2", "inbound_nodes": [[["relu6_2", 0, 0, {}]]], "config": {"name": "up_sampling2d_2", "size": [2, 2], "trainable": true, "data_format": "channels_last"}, "class_name": "UpSampling2D"}, {"name": "zero_padding2d_19", "inbound_nodes": [[["up_sampling2d_2", 0, 0, {}]]], "config": {"name": "zero_padding2d_19", "padding": [[1, 1], [1, 1]], "trainable": true, "data_format": "channels_last"}, "class_name": "ZeroPadding2D"}, {"name": "conv7_1", "inbound_nodes": [[["zero_padding2d_19", 0, 0, {}]]], "config": {"bias_initializer": {"config": {}, "class_name": "Zeros"}, "kernel_regularizer": null, "kernel_size": [3, 3], "name": "conv7_1", "padding": "valid", "bias_regularizer": null, "trainable": true, "use_bias": true, "kernel_constraint": null, "activation": "linear", "activity_regularizer": null, "strides": [1, 1], "data_format": "channels_last", "dilation_rate": [1, 1], "bias_constraint": null, "kernel_initializer": {"config": {"distribution": "uniform", "seed": 0, "mode": "fan_avg", "scale": 1.0}, "class_name": "VarianceScaling"}, "filters": 1}, "class_name": "Conv2D"}, {"name": "bn_conv7_1", "inbound_nodes": [[["conv7_1", 0, 0, {}]]], "config": {"gamma_initializer": {"config": {}, "class_name": "Ones"}, "center": true, "beta_constraint": null, "epsilon": 0.001, "momentum": 0.99, "name": "bn_conv7_1", "trainable": true, "scale": true, "beta_initializer": {"config": {}, "class_name": "Zeros"}, "moving_variance_initializer": {"config": {}, "class_name": "Ones"}, "moving_mean_initializer": {"config": {}, "class_name": "Zeros"}, "gamma_constraint": null, "axis": 3, "beta_regularizer": null, "gamma_regularizer": null}, "class_name": "BatchNormalization"}, {"name": "relu7_1", "inbound_nodes": [[["bn_conv7_1", 0, 0, {}]]], "config": {"name": "relu7_1", "trainable": true, "activation": "relu"}, "class_name": "Activation"}, {"name": "zero_padding2d_20", "inbound_nodes": [[["relu7_1", 0, 0, {}]]], "config": {"name": "zero_padding2d_20", "padding": [[1, 1], [1, 1]], "trainable": true, "data_format": "channels_last"}, "class_name": "ZeroPadding2D"}, {"name": "conv7_2", "inbound_nodes": [[["zero_padding2d_20", 0, 0, {}]]], "config": {"bias_initializer": {"config": {}, "class_name": "Zeros"}, "kernel_regularizer": null, "kernel_size": [3, 3], "name": "conv7_2", "padding": "valid", "bias_regularizer": null, "trainable": true, "use_bias": true, "kernel_constraint": null, "activation": "linear", "activity_regularizer": null, "strides": [1, 1], "data_format": "channels_last", "dilation_rate": [1, 1], "bias_constraint": null, "kernel_initializer": {"config": {"distribution": "uniform", "seed": 0, "mode": "fan_avg", "scale": 1.0}, "class_name": "VarianceScaling"}, "filters": 1}, "class_name": "Conv2D"}], "input_layers": [["input_1", 0, 0]]}, "class_name": "Model"}